Results/CNN_torch_model.pth (torch, 678599 bytes, 10 tensors)

conv1.weight f4 [6, 3, 5, 5]
00000000: df5a d4bd d93a 87bd f038 c1bd ffd8 223d
00000010: 22dc c63d 5bb0 7ebd db1c a33d a839 7f3d
00000020: 656a 41bc 78c9 98bc e60c 85bd a953 c3bd
00000030: 9066 c23d c5c4 71bd 8fc8 b5bd 4570 213d
00000040: 88b6 55bd 902d 81bd 26a4 74bd 2ded afbc
00000050: 9e3b 40bd b99d 943d fbd8 823d ffa9 823d
00000060: 899b 2bbd 7f18 cdbc 651d a0bd 1d03 0abd
00000070: 8e36 b53d cd59 af3d 9d5f 8c3d a89d 1dbd
00000080: 0abb b13d afe5 b33d d27b 90bd 8c26 a2bd
00000090: d8a9 28bc c8c8 7c3b 3882 b63c b99e a7bc
000000a0: 104b c8bd 518b 80bc 7b61 d53d e774 cb3d
000000b0: b3c4 623d 9ed1 d6bd 3907 6bbd 3179 83bd
000000c0: 1994 753c c2ba ba3d e454 773d f634 d4bd
000000d0: e93d c73c 0587 c23d ece2 bebd 1550 7cbd
000000e0: ced3 c93d 1a5a 0fbc 7278 49bd 93ac d5bd
000000f0: b9be 5ebd b2d5 2ebd aade 39bd 1780 56bd
00000100: 5819 0e3d 5466 c6bc 2e18 783c 5c6a 27bd
00000110: 193c 7e3d 3bbf 8e3d 6273 60bd 9a7b 5ebd
00000120: 80fb e73d 601f 773d 709a 713d 31f3 0d3d
00000130: fe76 c8bb ae26 e4bd dfac 183b be5b 243d
00000140: 9fbf 89bd 3f8b e23c cf8f 4b3d 071f 8ebd
00000150: e714 d63d 1158 8e3b bd6b 03bd 5722 b8bc
00000160: c838 8e3d 631d 4a3d c09a 2ebd fe31 30bc
00000170: d2ab c53c f5d2 debd 2030 6d3c 0a9f 9e3c
00000180: 6034 cd3d 8c62 e9bd 1592 673d 305f d3bd
00000190: cfdb 1b3d 516a 97bb 813e 3b3d 653c edbb
000001a0: 7275 b2bd d361 8d3d c030 da3d f4b4 093d
000001b0: a1a3 11bd 455e 53bd aaff 73bd fff3 b1bd
000001c0: 65e0 d5bb a5be 913d b659 28bd c280 febc
000001d0: 41f5 a3bd 72fb b8bb bf8e 9d3c 0755 603d
000001e0: 72cc e83d 8002 53bc b7e3 bfbd 7516 543d
000001f0: b3a7 e43d 5b9c c6bd da85 17bd 9437 c3bd
00000200: 4547 c0bd 6640 fe3c 2cad ac3c 3570 e73d
00000210: 7e66 52bd 3727 4ebd 8eb4 013d 7387 bf3d
00000220: eceb b1bd 6c4d 1dbd 9dce f83c 508d 8cbc
00000230: 7ee1 063d 7016 18bd 4ee9 c1bd 20c0 883d
00000240: 53db 6e3c 6c23 bdbd b5e7 e9bd 6709 07bc
00000250: 9959 85bd 7c50 b9bd 5f15 1c3d f629 223d
00000260: 2bf8 93bd e5d4 5d3d cbd5 763d bc8e 09bc
00000270: 2b68 74bb 7aab 25bc d210 353d a056 903c
00000280: 35c9 163d 4b24 c93c 4917 0f3d 6989 87bc
00000290: 5059 b2bd 41ec 813c de4e 7ebd b058 9e3d
000002a0: 9f8c c6bd b0a1 5e3d f8a2 6d3d 8267 363d
000002b0: a36f cd3d 9b83 503c 6e90 c33c b1b7 a43c
000002c0: 57a3 5fbc a622 353d aeb8 44bd 8ad3 5bbd
000002d0: 2dce 8cbd dfad 6d3d fe30 f9bc 913a b0bd
000002e0: eebc 82bd 5341 c03d 9e15 c53c f44c eb3d
000002f0: e27b a0bd 2a43 19bc 33db 933b 17c6 cf3c
00000300: 530c e3bd 28ff b2bc 609f 05bd 9334 0ebd
00000310: 136c 713d 2a9f a6bd dc4d ff3c f87a 3d3d
00000320: f8d8 3bbd 0fa4 e1bd 743b 16bd 4494 28bd
00000330: b358 78bd c324 87bd d7ca a33d 00f4 69bd
00000340: 802e 5dbd ccb7 33bd 0aed 1e3c e1f3 b83d
00000350: fbeb d4bc 6a8d 9a3d 0dea ecbd 307f 84bc
00000360: dbc5 cc3d fb07 95bb d5c7 cebd b488 be3c
00000370: 7ed6 593d 7092 b1bb 0402 45ba 3291 cfbd
00000380: a037 0fbd 50a2 55bd ff50 2e3d 3318 9cbc
00000390: 1394 b83d 9bc5 4ebc bb76 82bd c5dd 563c
000003a0: 902c cc3d 9375 cc3c 7835 163c 8e7e e73d
000003b0: 4434 27bd 224e 4f3d 95ac 663d 0f92 bcbd
000003c0: 076d b3bd 85f9 fd3b 0613 a83d 6905 2f3d
000003d0: 99b1 be3d 3ad1 133c 0971 ce3d 6232 183d
000003e0: 7387 733d 31f0 c73d 736c abbd aceb 513d
000003f0: b8dd a2bd 9150 02bd cd29 a9bd 3396 633d
-0.10368895 -0.06603021 -0.09434688 0.039757725 0.09709956 -0.062179904 0.07964488 0.062310845
-0.011805152 -0.018650755 -0.06496601 -0.09537441 0.094922185 -0.059025545 -0.08876144 0.03941371
-0.05217603 -0.063075185 -0.059726857 -0.021475399 -0.046931855 0.07256646 0.06389042 0.063800804
-0.041896377 -0.025036095 -0.078181066 -0.033694375 0.08848296 0.0856205 0.06854174 -0.03848043
0.08678253 0.08784043 -0.07054867 -0.079175085 -0.0102944 0.0038571823 0.02227889 -0.020461427
-0.09779942 -0.015691431 0.104189835 0.09934407 0.05536337 -0.104892 -0.057379935 -0.064196
0.0149889225 0.091176525 0.060383692 -0.10361664 0.024321513 0.09498409 -0.09320626 -0.06159981
0.09854852 -0.008749509 -0.04918713 -0.104333065 -0.054381106 -0.042684264 -0.045378365 -0.05236825
0.03469214 -0.024218716 0.015142484 -0.040872917 0.062069032 0.06970068 -0.054797538 -0.054317094
0.11327267 0.060332656 0.058985174 0.034655754 -0.0061177006 -0.1114019 0.0023296399 0.040126555
-0.06726002 0.027654288 0.049697693 -0.06939512 0.104532056 0.0043439944 -0.03208517 -0.022477312
0.06944424 0.04934443 -0.04262805 -0.010754107 0.024129782 -0.108800806 0.014476806 0.019362945
0.10019755 -0.113957494 0.0565358 -0.1032089 0.038051423 -0.004620828 0.045713905 -0.0072398656
-0.08713807 0.06903424 0.106538296 0.033619836 -0.03555644 -0.051603574 -0.059569992 -0.08689117
-0.006526994 0.07116441 -0.04110118 -0.031067256 -0.08005763 -0.005645209 0.019233106 0.05476859
0.1136712 -0.012879014 -0.09369605 0.05177923 0.111647986 -0.09697791 -0.036992885 -0.09532085
-0.093885936 0.031036567 0.021078669 0.11300699 -0.051367275 -0.050330367 0.03166633 0.09352007
-0.08687577 -0.038403913 0.030371958 -0.017157227 0.03292989 -0.037130773 -0.094683275 0.0667727
0.014578658 -0.09235272 -0.11421148 -0.008241988 -0.0651123 -0.09048554 0.03810632 0.0395908
-0.07225069 0.05415811 0.060262483 -0.008395847 -0.0037293534 -0.010111684 0.044205494 0.017619431
0.03681298 0.024553439 0.034934316 -0.016545014 -0.08708441 0.015859725 -0.062086932 0.077317595
-0.0969479 0.054353416 0.058016747 0.044532306 0.10031059 0.01272669 0.02387258 0.020107122
-0.013649783 0.044222496 -0.048027687 -0.053668536 -0.068752624 0.058027145 -0.03041887 -0.08604921
-0.06383692 0.093874596 0.02405816 0.11489287 -0.07836129 -0.009354392 0.0045122146 0.025363011
-0.11086335 -0.021850184 -0.032622695 -0.034718107 0.05894096 -0.08135827 0.031165056 0.04625985
-0.045861214 -0.1101762 -0.036677793 -0.041157022 -0.060631465 -0.065988086 0.07997673 -0.057117462
-0.053999424 -0.043876454 0.009700069 0.09030891 -0.02599143 0.07546504 -0.11568079 -0.016173929
0.099986754 -0.0045480705 -0.10096709 0.023258545 0.05318307 -0.005419068 -0.0007515254 -0.10135116
-0.034965158 -0.052156746 0.042557713 -0.019054508 0.09012618 -0.012620355 -0.06370302 0.013114397
0.09969437 0.024958408 0.009168021 0.11303435 -0.04082133 0.050611623 0.05631693 -0.09207546
-0.0876103 0.0077506923 0.082067534 0.04272977 0.09311218 0.0090220515 0.100801535 0.037157424
0.059455346 0.0976261 -0.083702944 0.051250145 -0.07952446 -0.031815115 -0.08259926 0.055563163

conv1.bias f4 [6]
00000000: 5cce cf3d 2ce1 90bc de27 d1bc c779 e7bd
00000010: f312 5c3d d8ac ba3d
0.10146782 -0.017685495 -0.025531705 -0.11302524 0.05372901 0.091149986

conv2.weight f4 [16, 6, 5, 5]
00000000: 9c27 973d 5dcc 9cbd 2ece 3c3d 0f48 2ebd
00000010: dd77 bf3b 7bc7 b23c 375a 41bd 87c9 86bb
00000020: 0c56 7bbc a611 fb3c 8c0a 38bd f142 81bd
00000030: 9306 c93c 78e9 823d ab8b 413d 8bbf 993b
00000040: 0864 52bd 40c6 a0bd 4da6 603d 8577 20bd
00000050: 134f 96bd 7d9b 203b 777d 8e3d 69da 39bd
00000060: 7feb 603d 4ea7 60bd a543 3abd fa63 64bd
00000070: 6a03 6b3c e8bc 25bd 2cab 1d3d 9e46 113c
00000080: 12ab 1cbd 86ed 5ebc 9e4e 7dbb aa43 a03c
00000090: d59e 3cbc f17d 873c ba63 f53b 6ced fe3c
000000a0: e568 a43d 1ace 603d dd76 8fbd 535b 2dbd
000000b0: b33c 94bd 416f 44bd f84d 043c 9011 3cbc
000000c0: 33dc aeb9 eed7 833d 4397 e3ba b1ac 4c3c
000000d0: 03d0 6fbd 6e33 57bd b3bf a6bd ad7a e33c
000000e0: 6731 8d3c 1b7e 44bc b5d9 103d 2a0d 9a3d
000000f0: 90eb 5fbd f1b9 dc3c 94b1 d73c 59a3 1d3c
00000100: 43ea 55bd e589 003d 67b0 c63c 7209 a4bd
00000110: b8e1 f1bb 3c8b 0b3a cc7b 393d 94bd 973d
00000120: 36fb 923c e7ec 99bd 9781 0f3d a2ec ec3c
00000130: c81a a03c b78d 1a3c 8a99 a23d 94da 58bb
00000140: 80e8 513d 77b2 913c 43bf 5a3d cd47 7fbb
00000150: ba88 3a3d 02ea 6c3d e9f4 193d d432 82bd
00000160: cacc 663d 28e7 21bd edd5 9bbd d629 03bc
00000170: 814a a3bd ee20 7fbd 65f3 5ebd 77e1 763d
00000180: 3655 4c3c 7e2d a0bd 8f2f 493d ee88 88bc
00000190: 96e4 4c3c e206 91bd 9a4e 993d e4d4 8cbd
000001a0: aa63 903c 5963 5bbc d493 9abd bdab 413d
000001b0: 8b37 59bd 1abd 493d 850a 1b3d 0f84 99bc
000001c0: 1446 8ebc baf9 093d 8070 983d c480 99bd
000001d0: 10a2 a6bd 2490 033d 6fe6 2e3d 0fce d5bc
000001e0: 63af 9e3c 97c8 26ba cbc2 81bd b201 5f3d
000001f0: ab00 cfbb e25f 393d 1789 55bb 679f a63c
00000200: 1ef8 a03d 60f1 643d 67d8 2a3d da93 17bd
00000210: 7485 5d3c 1a71 843d af5a 4c3d 71bd 913d
00000220: 0d1d a23c c445 39bd 64ff 64bd a0b1 20bd
00000230: 892d 83bd 81ee 8d3b 7c4b 133d 85fb dfbc
00000240: b22e 863c c69f 49bc 2b8a a33d a859 703d
00000250: a76c 403c f9fd 263c 8262 a03d b9bc 2abd
00000260: 4421 41bc 73a9 80bc 9d83 563c e0b5 1d3d
00000270: d972 11bc be40 08ba a73f 003d 48f0 30bb
00000280: 55b8 5abd d782 99ba 9b60 813d 7cee 263b
00000290: a144 7b3d fcad 2bbd 1d28 4f3c cabf 5f3c
000002a0: 732f 2ebc a648 a0bc 0441 34bd b198 47bc
000002b0: e302 933d f5bb 1cbd 30b7 ecbc 1f2c 703d
000002c0: 5e52 7dbd 77d7 b83c e506 9ebd 677e 87bd
000002d0: 5602 90bd 9a11 8e3d b790 66bc b929 88bd
000002e0: 21a1 87bd 04aa 163b 8c34 223d d0e9 8a3d
000002f0: 5b39 35bd 8e51 2cbd c89f 1a3d 5b8e 4bbd
00000300: 60c4 3fbd 9157 153d d9e4 b33c a926 59bd
00000310: 8fd2 14bd 1dd8 153d 5ff7 4a3d 85c5 993c
00000320: ffdf 6cbc 7610 16bc 9f49 82bd b37f 9c3d
00000330: 0494 22bc a6f3 a7bb f8cb 493d 81c8 4339
00000340: cd75 5b3d 89aa 4bbd e911 cd3c 43c9 973d
00000350: 02c9 e7bc f310 343d 71b2 3dbd 0dbe 613c
00000360: eacd 0b3d d0e0 a4bb 7ee7 2a3d fb60 3a3b
00000370: 0454 30bd 4e76 41bd f319 2d3d dbb4 00bd
00000380: e512 243c b200 f2bc c454 5f3d 2d3f 633d
00000390: 01be 3dbd dd66 05bc 2b12 5dbd 0cd1 85bd
000003a0: a794 b53c de26 873c 586d 61bd e938 8e3d
000003b0: 01fa 443b dd85 373d 7927 1dbc 8b60 26bd
000003c0: 45c9 91bd 56a8 92bd 439d 7c3d d595 8a3d
000003d0: 754a 3b3d 15c8 ae3c 2ba1 ebbb 068a c5bc
000003e0: 7fa7 963d d62f 8bbd ee26 25bd 3544 c9bc
000003f0: 0fff 6d3d 7944 85bd 5130 223b c974 d83a
0.07380602 -0.07656167 0.046095066 -0.04254919 0.0058431462 0.021823635 -0.047205176 -0.0041133794
-0.015340339 0.030648064 -0.044931933 -0.06311596 0.024539268 0.06392187 0.04725234 0.004692023
-0.05136493 -0.07850313 0.054846097 -0.039176483 -0.07339301 0.002450674 0.06957524 -0.045374308
0.054912087 -0.054847054 -0.045474667 -0.055759408 0.014344076 -0.04046336 0.03849332 0.008866934
-0.038249083 -0.013606435 -0.0038651596 0.019563515 -0.011512478 0.016539546 0.007488695 0.031119071
0.080278195 0.054884054 -0.07005093 -0.04232342 -0.0723814 -0.047957662 0.00807523 -0.011478797
-0.00033351927 0.0643767 -0.0017363805 0.012492345 -0.058547985 -0.05253928 -0.081420325 0.027768457
0.017235471 -0.0119929565 0.03536387 0.07522042 -0.05466801 0.026944133 0.026329793 0.009621465
-0.052225363 0.031381506 0.024254037 -0.08009614 -0.007381644 0.0005323177 0.045284078 0.07409206
0.017942052 -0.07515889 0.035035696 0.028921429 0.01954402 0.0094332015 0.079394415 -0.0033089267
0.05124712 0.017785294 0.053405058 -0.0038952709 0.04554055 0.057840355 0.03758708 -0.06357351
0.056347646 -0.03952709 -0.076091625 -0.00800558 -0.07973195 -0.062287264 -0.054431338 0.060273614
0.012471488 -0.07821177 0.04911762 -0.016666856 0.012505671 -0.07081391 0.07485695 -0.06876543
0.017625649 -0.013390386 -0.07547727 0.047282923 -0.053031486 0.049252607 0.03785183 -0.018739728
-0.0173674 0.033685423 0.07443333 -0.07495263 -0.0813638 0.032119885 0.042700227 -0.026099233
0.01937074 -0.00063622877 -0.06335982 0.054444976 -0.0063172183 0.045257457 -0.0032582933 0.02033968
0.078598246 0.055894256 0.041710284 -0.037006237 0.013520587 0.06466885 0.04989117 0.07116211
0.019789243 -0.04523255 -0.055907622 -0.039231896 -0.064051695 0.0043314104 0.03596066 -0.027341614
0.016379688 -0.012306159 0.07985338 0.058679253 0.011744655 0.010192388 0.07831289 -0.041683886
-0.011787716 -0.0157058 0.0130929025 0.038503528 -0.0088774795 -0.00051976356 0.031310704 -0.0026998688
-0.05339845 -0.0011711967 0.06317254 0.0025471738 0.061344747 -0.04191397 0.012643841 0.013656566
-0.01063143 -0.019565891 -0.044007316 -0.012182401 0.07178285 -0.038265187 -0.028895944 0.058635827
-0.06184613 0.02256368 -0.07716159 -0.06615906 -0.070316955 0.06936951 -0.014072589 -0.06648583
-0.0662253 0.002298952 0.039600894 0.067828774 -0.04424415 -0.042069964 0.037750036 -0.049696308
-0.046818137 0.036460463 0.021959709 -0.053015385 -0.036333617 0.036583055 0.049552318 0.018770942
-0.014457702 -0.009159198 -0.06361698 0.07641544 -0.009922985 -0.0051254807 0.049266785 0.00018671343
0.05357914 -0.049723182 0.025032954 0.074114345 -0.02829409 0.043961477 -0.046312753 0.013778222
0.03413192 -0.0050316826 0.041724674 0.0028439153 -0.043048874 -0.047231965 0.042261075 -0.031422477
0.01001427 -0.029541347 0.0545242 0.05548017 -0.04632378 -0.0081422 -0.053972404 -0.06534013
0.02216561 0.016498026 -0.05503592 0.069444485 0.003005624 0.044805396 -0.009591931 -0.040619414
-0.07118467 -0.07161014 0.061673414 0.067668594 0.045725305 0.02133564 -0.0071908436 -0.024113666
0.07356166 -0.06796233 -0.04032033 -0.024568656 0.05810457 -0.06507201 0.0024748037 0.0016514297

conv2.bias f4 [16]
00000000: cd16 10bc 9bca a83d 574c 1fbc 480d 173b
00000010: bfea 6b3d dfb2 64bd a749 673d 55a9 36bd
00000020: 98f3 953d cfa0 2d3d c6d3 b63c 9c61 a5bc
00000030: f15b 873a 080e 0fbd 6856 1abd 86ff 473d
-0.008794499 0.08241769 -0.009722791 0.0023048688 0.05759692 -0.055834647 0.056466725 -0.04459508
0.073218524 0.042389687 0.022317778 -0.020188145 0.0010327083 -0.03492549 -0.03768006 0.04882767

fc1.weight f4 [120, 1296]
00000000: dde6 923c 298e 8dbc 8014 72bc 1d5c c83c
00000010: 4e99 003c e5d4 debc aee0 6e3c ce95 433c
00000020: 6b20 b63c 0ba0 d6bc 393e a93c 21c1 d03c
00000030: 066c 7d3c fedb aabc 2060 63bb d40a e7bb
00000040: 2012 a53a 6c48 bd3b 4076 c4ba ddf5 e03c
00000050: eaac 2dbc 5e5e 673c 552f 5bbc 2659 a8bc
00000060: 076e d6bc 9ec4 8dbc b033 f2ba 24ef 18bc
00000070: 19fe 9ebc b825 bfbb 7c1f e83b 400c b6bc
00000080: a360 e03c c87e 623b 90e7 273b 4ac6 713c
00000090: 5698 5d3c f4d8 b6bc 6e3a 603c 5838 02bc
000000a0: 8661 463c 7091 37bb 3182 ae3c 8771 da3c
000000b0: 2c8a b0bb 0774 b13c 9297 5c3c 79d8 d63c
000000c0: 149d 9dbc cf85 863c 418c e33c c82c 653b
000000d0: 8cd7 9a3b 9d4e ddbc 1b9e abbc f61a 86bc
000000e0: b0b7 a7bb 6252 403c 9068 263b 5998 a8bc
000000f0: 0e08 0ebc 3418 cb3b 2ea5 483c 942b ddbc
00000100: e558 a63c 1a7c 2f3c d016 e4bb 1721 dbbc
00000110: 979c c8bc 0aae 763c 11b1 b63c fd70 5fbc
00000120: 8ba7 aabc 5052 c1bb cb04 60bc 2503 cabc
00000130: eee8 773c 14a1 b6bb 0a31 1abc c4fc cb3b
00000140: 7906 48bc 04e5 65bc 65a5 c7bc 1c54 a0bc
00000150: 2085 683a 165c 603c 602d 313a 48ea dbbb
00000160: c0ac abba 9ffc a53c a157 b13c 5af5 8bbc
00000170: a855 4cbb 8644 773c 7020 fbbb 5bb4 c23c
00000180: f571 debc 7022 d9bb e904 b13c d239 d3bc
00000190: 6ce3 f3bb bee7 793c c241 673c b525 c7bc
000001a0: 7ea3 c9bc e04c afbc da88 9fbc fe99 0d3c
000001b0: a373 ad3c d518 63bc d67a 95bc 8636 92bc
000001c0: 6c28 aabc 1c95 c3bc f251 68bc 94d7 b33b
000001d0: 24c5 993b c205 1b3c 06d3 473c b960 c9bc
000001e0: 70fc 18bb 3a7d 153c 19c4 d33c 9725 bebc
000001f0: 7078 d03a 83fa 843c 504c adbc fa17 8ebc
00000200: d931 cb3c 338c c03c 9093 da3a 3c01 b83b
00000210: 22c5 433c b27e 403c c665 6d3c 9323 9a3c
00000220: 70f7 d63a 6edf 073c d6e7 593c 2b1a 6bbc
00000230: 4a43 163c 2085 15bb c07f 41bc 386d 37bb
00000240: 7582 a93c 5c29 d8bb b63f 8bbc 6790 d5bc
00000250: d139 d33c 99cd b73c 2073 0ebb 58c5 5abb
00000260: f6d6 95bc 4fed d03c 38b2 dbbb 5361 b63c
00000270: d981 a83c 2676 c0bc 94db cd3b d161 d63c
00000280: dcce c9bb aca2 b33b 0031 08bc 24f0 dbbb
00000290: a80b 4abb bfcb 983c f7e3 c7bc 3937 6fbc
000002a0: 0983 babc 8099 d9bb a2a7 dbbc 27d2 81bc
000002b0: f9a5 86bc 8484 3ebc 151d cdbc 552c 6dbc
000002c0: d3ed 9f3c 80c8 b0bc 2239 a1bc 6759 8cbc
000002d0: 8695 653c cce0 c93b 8043 c6b9 4844 0abb
000002e0: 79da 59bc 481c 35bc 1dc9 b83c 22d0 3d3c
000002f0: c117 ca3c 261e 92bc 80d2 58bc a4b7 d0bc
00000300: aa2f 36bc 9c2b c0bc 9e05 703c 7c9a b3bc
00000310: 830a 853c 92a5 91bc ab0a b8bc d12d a53c
00000320: d823 00bb fbec dc3c fac5 7b3c c9e7 a3bc
00000330: 59af 76bc a5df 863c eb43 a4bc a208 d4bc
00000340: 9991 61bc 7f9e d73c 7da2 8d3c 0e29 a6bc
00000350: 6e2b 35bc 0eaf 2b3c cbc8 dbbc 2334 b23c
00000360: 43b5 963c 2746 69bc 163d 01bc 0445 a13b
00000370: 90e5 593b 0bc3 a7bc 5de5 873c 5887 5e3b
00000380: e1ed d13c 82e6 a7bc 335d dd3c 9b7b bcbc
00000390: 41dd 8c3c 0048 3c37 b7f5 d23c ac26 853b
000003a0: f24b bdbc 128c dbbc b970 cb3c 7208 6abc
000003b0: 3e02 cebc 6016 563b 77bd 813c e734 ce3c
000003c0: 3cdf c4bc ba92 95bc 3b4f d5bc 6a12 533c
000003d0: 0020 3539 7095 caba 0047 91ba f47c a9bc
000003e0: 72d5 583c 0697 723c 44cd c93b 8211 3e3c
000003f0: de93 0d3c 7037 23bb 3166 df3c 1665 133c
0.01793235 -0.017279701 -0.014775395 0.024457986 0.007849051 -0.027201125 0.014579935 0.011937572
0.022232255 -0.026199361 0.020659553 0.025482716 0.015467649 -0.020856854 -0.0034694746 -0.0070508514
0.0012593903 0.0057764556 -0.0014988855 0.027460987 -0.010600308 0.01412162 -0.013377984 -0.020550322
-0.026175512 -0.017305668 -0.0018478539 -0.009334359 -0.019408273 -0.005833354 0.0070838314 -0.022222638
0.02738983 0.003456043 0.00256202 0.014756748 0.013525089 -0.022320248 0.013685806 -0.007948004
0.012108212 -0.0028010271 0.021302314 0.026665462 -0.005387565 0.021661771 0.013463872 0.02622627
-0.01923994 0.016421227 0.02777684 0.0034969319 0.004725402 -0.027015025 -0.020949414 -0.016370278
-0.005118333 0.011738392 0.0025391914 -0.020580458 -0.008668913 0.0061979536 0.012246413 -0.026998319
0.02030606 0.01071074 -0.0069607273 -0.026749177 -0.02448873 0.015056143 0.022301229 -0.013637778
-0.020831844 -0.005899705 -0.013673018 -0.024659703 0.015131218 -0.005573401 -0.009411106 0.0062252004
-0.012208574 -0.014031652 -0.024370858 -0.019571356 0.0008869935 0.01369383 0.00067587756 -0.006711278
-0.0013097748 0.02026206 0.02164823 -0.017084766 -0.0031178985 0.015092021 -0.007663779 0.02376764
-0.027153948 -0.0066264197 0.021608787 -0.025784407 -0.0074428823 0.015253006 0.014114799 -0.024309972
-0.024614092 -0.021398962 -0.019474436 0.008642672 0.021173304 -0.013860901 -0.01824705 -0.017848264
-0.020771228 -0.023874812 -0.014179694 0.0054883454 0.0046926904 0.009461822 0.012196308 -0.024582254
-0.0023343824 0.009124095 0.025850343 -0.023211284 0.0015905034 0.016232735 -0.021154553 -0.017345417
0.024804043 0.023504352 0.0016676057 0.0056153815 0.011948856 0.0117489565 0.014489597 0.018815791
0.0016400646 0.008293016 0.013299903 -0.014349501 0.009171316 -0.0022814944 -0.011810243 -0.0027988683
0.02069209 -0.0065967273 -0.016998153 -0.026069833 0.025784405 0.022436904 -0.00217361 -0.0033381786
-0.018290978 0.025503783 -0.006704595 0.022263205 0.020569729 -0.023493838 0.0062822793 0.02616969
-0.0061586928 0.0054820385 -0.008312464 -0.0067119766 -0.0030829702 0.018651841 -0.024400694 -0.014600568
-0.02276756 -0.006640613 -0.026813332 -0.015847279 -0.016436564 -0.011628274 -0.025038281 -0.014475902
0.019522583 -0.02157998 -0.019680563 -0.017132474 0.0140127 0.006160831 -0.00037815794 -0.0021097828
-0.013296717 -0.011054106 0.022556836 0.011585267 0.02466953 -0.017836642 -0.013233781 -0.025478192
-0.011119762 -0.023458295 0.014649777 -0.02192425 0.016240364 -0.017779145 -0.022466024 0.020163449
-0.0019552615 0.02696847 0.0153670255 -0.020007985 -0.015056455 0.016464064 -0.020051917 -0.025883023
-0.013767623 0.026320694 0.017289395 -0.020283248 -0.011057718 0.010478748 -0.026829144 0.021753376
0.01839698 -0.014237917 -0.007888099 0.0049215574 0.0033248402 -0.020478746 0.016588861 0.0033955183
0.025626125 -0.020495657 0.02702198 -0.023008158 0.017195346 1.1222437e-05 0.025751932 0.004063448
-0.023107503 -0.02680019 0.024834024 -0.01428424 -0.025147554 0.0032667145 0.015837414 0.02517171
-0.024032228 -0.018258441 -0.026038757 0.012882808 0.00017273426 -0.0015455913 -0.0011083782 -0.020689465
0.013234483 0.014806515 0.006158503 0.011600854 0.008641211 -0.002490487 0.027270408 0.008996269

fc1.bias f4 [120]
00000000: a636 98bc 9b97 a2bc 6e47 07bc 9cf9 cb3c
00000010: dd21 f239 a1ca e63c d9fa 6abb 0092 af38
00000020: ab97 bcbb 0bfa 8d3c d9d2 203a 2f05 97bc
00000030: 10a5 d73c 3665 a53c 9c8f 593c 24f7 df39
00000040: 1884 e8bb 5b5a 8ebc ed9d 4ebb f5e8 78bc
00000050: 897f a0bc 5ea6 cdbc a90c db3c f98a ddba
00000060: 9ee7 963b c72a a6bc 8b2d a83b 6af0 4f3c
00000070: 4057 afb9 6c52 cabb e7d2 c23a 8972 233a
00000080: 9a09 3abc 59c3 b0bc 12c3 b43b 4cba b4bc
00000090: 6fb1 793c 30a8 163c 4741 6abc 02ac 8fbc
000000a0: 576d a83c 04aa a53c ec3d 563b 3c66 c83b
000000b0: 8e55 bc3c f535 3d3b 8254 c4bc c477 43bc
000000c0: 3c86 52bc 5866 13bc 72b1 1bba 5717 1fbc
000000d0: 18fe b33c 510e 85bc 0c19 acbc 4674 5c3a
000000e0: d8ef 35bc 3b36 daba 028e 8f3b d53d 62bc
000000f0: f07f c1bc e162 5ebb ecac d1bc 9f10 d1bc
00000100: b157 c7bc a340 d63c 7847 95bc ab3f b7bc
00000110: 4c4e 783c 681a ac3b 8f9c c8bc e1b6 7dbc
00000120: 5163 613a 0f83 863c d43a 38bb 8dc0 2a3c
00000130: 93ae 4f3c 1f62 943b d81c 8b3c b170 e53a
00000140: 8323 573b 3e20 e7bb 754d 1cbc e9c4 61bc
00000150: f52b 29bc 54a7 873c d92e e63c 2696 d4bc
00000160: d244 8bba 0b43 06bc e034 bebc f50c 54bc
00000170: 60fd b0bc 27c8 733c 3ffe 053c 114a d93c
00000180: 871b d73c b78b 3b3c 9322 4a3c d94b e0bc
00000190: 810e 9ebc c845 2a3b be20 b1bc b20f 243c
000001a0: 7b8e e4bc 3f94 21bc c0fa 893c bd40 65bc
000001b0: 0cc0 54bc e015 cc3c 3a34 b8bb d24e c0bc
000001c0: ee62 42bb e1f0 be3c 23d8 1a3c 5c91 b7bc
000001d0: 8054 dfb9 f8ce cb3c a743 d83c 5817 e13b
-0.018580746 -0.019847682 -0.008256776 0.024899296 0.00046183067 0.028172793 -0.0035855083 8.371845e-05
-0.005755385 0.017331144 0.00061349344 -0.018435089 0.026323825 0.020189863 0.013278868 0.0004271801
-0.007095825 -0.01737707 -0.0031527237 -0.01519226 -0.019592064 -0.025103744 0.026739435 -0.0016902379
0.0046052476 -0.02028407 0.0051323823 0.0126915965 -0.00033443607 -0.0061743762 0.0014863879 0.00062350236
-0.011354828 -0.021577524 0.0055164183 -0.02206149 0.015240057 0.009195372 -0.01429779 -0.017538074
0.02055995 0.020222671 0.0032690717 0.006115703 0.022990014 0.0028871272 -0.023966078 -0.01193041
-0.012849387 -0.008996569 -0.0005939222 -0.0097101545 0.021971747 -0.016242178 -0.021008037 0.000840966
-0.0111045465 -0.0016648242 0.0043809423 -0.013808687 -0.023620576 -0.0033933448 -0.02559515 -0.02552062
-0.024333807 0.026153868 -0.018222556 -0.022369226 0.015155386 0.0052521713 -0.024488715 -0.015485496
0.0008597868 0.016419915 -0.0028111236 0.010421884 0.012675899 0.0045282985 0.016981527 0.0017504898
0.0032827563 -0.007053404 -0.009539952 -0.013779857 -0.010325422 0.01655928 0.02809851 -0.025950503
-0.0010625368 -0.008194695 -0.023218572 -0.012942542 -0.021605194 0.014879263 0.008178293 0.026524575
0.026258243 0.011446885 0.012337345 -0.027379917 -0.019294025 0.0025981534 -0.021622058 0.010013508
-0.027899971 -0.009862005 0.0168432 -0.013992486 -0.012985241 0.024912775 -0.0056214603 -0.023475084
-0.0029661017 0.02330822 0.009450945 -0.02240818 -0.00042596832 0.024878964 0.026399447 0.006869238

fc2.weight f4 [84, 120]
00000000: cb9d b5bd 4ed4 b73c 9ff6 863d e524 08bd
00000010: e909 a8bd cc45 673d 1ad3 fcbb 9c4a 8e3d
00000020: 77e1 013c cda9 8c3d 5b67 82bd 66a5 b73d
00000030: 2dd5 13bd 1121 873d 85c3 7abd ccbc 31bd
00000040: 2e72 4d3d c740 b2bd 2ee3 a4bd ac84 a0bd
00000050: 43c3 853c c4c7 633d 0c67 8f3d 1c6c 41bd
00000060: 6f4a 84bd 783f a03d 8708 5abd 1d3d 9bbd
00000070: 9d10 8b3d 771a b5bd ddf7 b23d 7fe2 5abd
00000080: 5093 023c 7a2c f0bc a7a5 9fbd c599 92bb
00000090: 7230 2f3d d524 993d 6a5d f2bc bd4a c7bc
000000a0: aaff 9e3c 7a13 1dbd 7a5f a8bd f422 ffbc
000000b0: efbb 923d 70da 8d3d 51fb 2e3c 7882 1c3d
000000c0: eac9 7d3d 85bd b3bd c581 943c 7797 b93d
000000d0: a093 b1bc 5646 023d 06cc e8bc e6c2 b8bd
000000e0: 9155 993d 856f 183d 3456 d43c e498 2a3d
000000f0: f624 a53d 635d 96bd 7913 1a3c faee 833d
00000100: 9117 3b3d 6cf4 af3d 7ace 9c3d 6e9c 2b3d
00000110: 1eb9 8bbd a040 80bc c31c 3fbb df79 253d
00000120: 8739 7dbd 9901 8a3d 6257 acbd d151 a63d
00000130: 0eba 393d fbc0 0c3d 4627 0abc ddaf 9abd
00000140: d62c 41bb 40ab 8e3b 8cf9 1e3d 2a92 8c3d
00000150: 8c7b a53d df0c dfbc 0e15 72bc 9aab 323d
00000160: f0db 68bd 9d8f 013d 8a09 903d a477 c73c
00000170: 6e8b 533d dfc5 a03c ee3b 71bd 09f4 3c3d
00000180: 1974 813d fd1f 9fbd 4c89 a7bd 4412 8d3c
00000190: e315 5c3d 611e 74bd c005 a53a 7773 9e3c
000001a0: 860a 0b3d a1aa 4ebd 21cb 34bc d345 b8bd
000001b0: 426b a63d 110b 88bd 3b00 0fbc ce2c b7bd
000001c0: c02d 433d 529c 69bd 54c9 88bc 298b 4a3d
000001d0: 6865 aebd ccf2 693d ef38 1abd 55ac 9ebd
000001e0: 8833 2fbc c02a 60bd 9efb a63d 7134 5abd
000001f0: 54cd 8cbd 0649 0bbd a4be 543d 6f29 31bd
00000200: d8b4 193d 6e82 b63d d9b9 2cbd f01a b9bb
00000210: 608c 5ebd 00bc 06bc 5411 a83d 0c1e 95bd
00000220: a8db 87bd b80c ba3d 38b9 64bc 8e42 9c3d
00000230: 3042 1d3c a01a ddbb 50b1 a9bc b45b 7c3d
00000240: 60a7 77bc 6505 95bd a852 cdbc bc98 313d
00000250: c04e 6dbc 00e1 efb9 b090 9cbc b711 90bd
00000260: 30f1 993d 30e9 923b f42f 4c3d 7742 b8bd
00000270: 682b 153c 980c 473c 289f 2c3c f094 e7bb
00000280: 5282 76bd 0086 06bb 004d ee3b cec8 a13d
00000290: ac54 3fbd 2e56 b33d c0c8 74bc 484b b9bc
000002a0: 8024 6d3b e44d eb3c e041 e4bb 2408 333d
000002b0: 4202 983d 0440 dcbc 180b 4c3d 9cb7 3b3d
000002c0: 9028 a0bd bcd6 e13c 76f7 a4bd da00 853d
000002d0: ba2a 88bd 29a7 4abd b1e4 35bd 58a2 f4bc
000002e0: cea1 993d 883b 823d fc8f 54bd f09b 9dbd
000002f0: b018 793d 2f40 8ebd 8ce6 acbc b465 3e3d
00000300: be2b aebd 9c7b e93c 4c03 a93c 777d 88bd
00000310: acb6 8abc 3ccc 00bd 0b53 59bd 0e2d 8a3d
00000320: 748f 9d3c 706a a1bd 40c2 b6bc b06c c03b
00000330: 70c6 d1bc 4c1d b93d d81f bd3c adb0 30bd
00000340: d25c 833d 14a8 563d 7b41 80bd e9c6 9cbd
00000350: 4827 a63c ce0d 883d 7cc1 57bd 52e2 b93d
00000360: 88d5 b43c 1cba 0e3d 7651 9f3d 8035 2d3d
00000370: 4d67 a0bd 9dca 66bd 12a8 a93d bcf4 00bd
00000380: 34fa 8dbc b5b2 afbd f6d9 06bd e05b 18bc
00000390: a4bb a8bd a483 343d 4023 e43c 9cb9 c1bc
000003a0: 69a3 19bd 91ae b3bd 1415 0ebd 0010 4d3c
000003b0: 683e 543d 7018 e6bc 5484 88bc 82a7 b2bd
000003c0: 9c71 6f3d f294 99bd 4139 983c b6fc 313d
000003d0: d93f f2bc e413 3fbd 4b89 73bd 2ba3 82bd
000003e0: 366c dfbb d4fc 50bd 91c0 cfbc b84f 0b3d
000003f0: 4c14 96bc c3fa 8e3d de61 a13d 2a68 033d
-0.08867987 0.022440102 0.06590008 -0.03323831 -0.08205015 0.056463048 -0.007715595 0.06947824
0.00792729 0.068683244 -0.0636737 0.08967094 -0.036091972 0.06598104 -0.06122162 -0.04339294
0.05015772 -0.087037615 -0.080511436 -0.07837805 0.01632846 0.055610433 0.070020765 -0.04722224
-0.064595096 0.07824606 -0.05323079 -0.07580016 0.06790278 -0.088429384 0.087386824 -0.05343866
0.007969692 -0.029318083 -0.077952676 -0.004473897 0.04277081 0.07477728 -0.029585559 -0.02432763
0.01940902 -0.038348652 -0.08221336 -0.031144597 0.07164752 0.06926429 0.010680036 0.038210362
0.06196014 -0.08776382 0.018128285 0.09062093 -0.021676838 0.03180536 -0.028417598 -0.09021549
0.074870236 0.03721573 0.025920011 0.041649714 0.0806369 -0.07342031 0.009404057 0.064420655
0.04567677 0.08591542 0.0765657 0.04189723 -0.06822418 -0.015655816 -0.002916143 0.04039943
-0.06182244 0.06738586 -0.084151044 0.08121074 0.04534345 0.034363728 -0.008432215 -0.075530745
-0.0029476187 0.0043539107 0.038812205 0.06863816 0.08080205 -0.027227817 -0.014775528 0.043620683
-0.056850374 0.0316311 0.070330694 0.024349041 0.051646642 0.019625602 -0.058895044 0.046131168
0.06320972 -0.07769773 -0.08180484 0.017220624 0.05373181 -0.059599284 0.0012590215 0.019342167
0.033945583 -0.050455693 -0.011034758 -0.08997693 0.081259266 -0.06642736 -0.008728082 -0.08944093
0.047651052 -0.057033844 -0.016697563 0.04944912 -0.085154355 0.057116315 -0.037651952 -0.077477135
-0.010693438 -0.05472827 0.08153461 -0.05327267 -0.06875101 -0.034005187 0.05193962 -0.043252405
0.03752598 0.08911596 -0.042169426 -0.005648963 -0.05433309 -0.008223534 0.0820643 -0.072811216
-0.06633693 0.09084457 -0.013960175 0.07629882 0.0095983 -0.0067475587 -0.020714432 0.061610892
-0.015115589 -0.072764196 -0.025063828 0.04335855 -0.0144841075 -0.0004575327 -0.019111961 -0.07034629
0.07516706 0.0044833645 0.04985042 -0.08997052 0.009104587 0.012148999 0.010535993 -0.0070673153
-0.060182877 -0.0020526648 0.0072723627 0.078996286 -0.04671161 0.08756672 -0.014940441 -0.022618905
0.0036185086 0.028723665 -0.0069658607 0.043708935 0.07422306 -0.026885994 0.049815267 0.0458294
-0.07820237 0.027568214 -0.08055012 0.06494303 -0.066487744 -0.049475823 -0.04440755 -0.029862568
0.07501565 0.06359011 -0.051895127 -0.07695758 0.06081456 -0.06945836 -0.021106027 0.04648371
-0.08504437 0.028501324 0.020631455 -0.066645555 -0.016932808 -0.031444773 -0.05305771 0.06746875
0.019233443 -0.078816295 -0.022309422 0.0058723316 -0.025607318 0.09038791 0.023086473 -0.04313724
0.064141884 0.052406386 -0.062624894 -0.076551266 0.020282403 0.06643258 -0.052674755 0.0907637
0.022074476 0.034845456 0.07779209 0.04228735 -0.07832203 -0.05634557 0.0828401 -0.031483397
-0.01733122 -0.085790075 -0.032922707 -0.009299248 -0.082389146 0.044070855 0.02784884 -0.023648076
-0.037509356 -0.0877353 -0.03468807 0.012516022 0.051817328 -0.028087825 -0.016664661 -0.08723356
0.058457956 -0.07499112 0.018581988 0.043453895 -0.02957146 -0.04664983 -0.059457105 -0.06378778
-0.0068183197 -0.051022366 -0.025360378 0.034011573 -0.018320225 0.06981423 0.07879995 0.03208176

fc2.bias f4 [84]
00000000: cab4 653d 2ef0 0ebd 8963 af3d 63a3 12bc
00000010: e802 44bd 510f 8d3d 1d5d 98bd 5eb8 45bd
00000020: 100e d03c 00a6 713d c435 953d 486f 90bd
00000030: f616 a63c a0ad c4bc 88b1 063d 53c2 b8bd
00000040: 8f70 54bd 4b7e 5dbd abbb 4c3d 8ece b33d
00000050: 47ab 2c3d afb3 56bd 4f1a a9bc e387 e63c
00000060: 684e 043d 2f12 9dbd fe4f 3bbd 9638 1e3d
00000070: a80d 813d 11b3 b33d 48eb fe3c c29e 753a
00000080: 0e20 b73d f5e7 b83c 6aab 54bd 3d5b b5bd
00000090: d60a d73c 4e1b 3c3c a43a 963d f7c3 2d3d
000000a0: 940b 64bd c4ca 89bd fb2b 3bbd f1b4 b3bc
000000b0: 249b 023d e2fe 77bd 2a28 603d 14f8 7e3d
000000c0: 45ec 1e3d d201 0a3c f066 973d ca0e 943d
000000d0: 8edd 9ebc 107d 8a3b 6ede 5c3d 7e65 873d
000000e0: 26cd 3a3d 9a5f fbb9 84b1 593d cc52 473d
000000f0: 5cd7 77bd 9abe ae3d 537f 6b3d dae8 8abb
00000100: ad46 023d 2a7b 9a3d 4a20 153d c234 893d
00000110: a3d8 a93c 0865 9e3d aa0a 9e3c 6271 a4bd
00000120: c6f8 3cbd 93ab 09bd 97c5 2fbd 624f b8bd
00000130: b3b0 1a3d ba17 4c3d 0f13 a7bc c20b 2c3d
00000140: 4cdb 8b3d 9c4a a83c 4185 963d 0eed b2bd
0.056080617 -0.034897022 0.08563907 -0.008950087 -0.047854334 0.06887687 -0.07439635 -0.04827153
0.02539733 0.0589962 0.072856456 -0.07052475 0.02027462 -0.024008572 0.03288415 -0.090214394
-0.051865157 -0.05407552 0.04998366 0.087796316 0.04215553 -0.052417453 -0.020642428 0.028140968
0.032301337 -0.07669484 -0.045730583 0.038628183 0.06301433 0.087743886 0.03111805 0.0009369665
0.08941661 0.022571543 -0.051921286 -0.08855293 0.026250284 0.011481119 0.073354036 0.042423215
-0.055675104 -0.067281276 -0.04569624 -0.021936866 0.031886235 -0.06054581 0.054725803 0.062248304
0.038799543 0.008423286 0.07392681 0.07229383 -0.019392755 0.0042263344 0.053923063 0.06611155
0.0456058 -0.0004794568 0.053147808 0.048662946 -0.060508117 0.08532448 0.057494473 -0.004239184
0.031805683 0.07543023 0.036407746 0.06699516 0.020733183 0.07734114 0.019292194 -0.080294386
-0.046135686 -0.03361089 -0.042913046 -0.08999516 0.03776617 0.049827315 -0.02039483 0.0420034
0.06828937 0.020543389 0.07349635 -0.08736621

fc3.weight f4 [3, 84]
00000000: faca 6dbd 0fe8 8ebd 96c1 123d a6d5 113d
00000010: 644f 3abd a159 c33d 7417 04bd 63aa 81bd
00000020: 3e8f 113d 4100 bc3c 3d95 9a3d fae4 0cbd
00000030: 0548 cc3d 0d1e d03d 212c 85bd 961d 303d
00000040: dea7 6e3d f472 b23c 3966 9abd 428a 16bd
00000050: 6bd7 4b3c 7648 cbbd 6aa9 ce3d 1954 b0bd
00000060: 36d0 ff3c 96c0 b8bd f543 9f3d 6b3a 49bd
00000070: 8888 ce3d ee05 eabd 9c88 e83c 4e66 b43d
00000080: 2bf6 b63c fbd0 cbbc dc8e 753b e5dd 0739
00000090: 526a 103d b1e0 9a3d 8ee3 e5bc 089f ccbc
000000a0: 5db3 883d 6666 acbd 1350 dfbc b903 abbd
000000b0: 5503 d5bd 9020 d73d cacf 86bd d2e0 c73d
000000c0: 0b28 c73c 62cc c93d 45a1 093d 0cd9 dcbd
000000d0: 48b0 58bd e82e b03d b48e 5ebc 5d63 d03d
000000e0: 963a adbd 011a fa3c 41d5 a33d 7fab b0bc
000000f0: 180d 81bb 2a68 ecbd 6aa4 83bc cb77 c9bd
00000100: 45db b6bd 435b b5bc cc3d 83bc 2aa1 f43c
00000110: 48e6 593d 47e0 35bd 9d50 67bd 705b dbbb
00000120: a0f5 933d 3e03 c1bd 766f 903c 00d0 27ba
00000130: fc30 8ebd 7a2e 933d fb73 6bbd a9c3 e5bd
00000140: b7bf cd3c 8899 453b 86bd d7bd 8826 20bd
00000150: f8a1 923d cbcc aa3d ebb8 803d ee0b 13bd
00000160: 1e2a 6f3d 4d44 893d da18 9ebd 069f d7bd
00000170: e737 32bd 26ed 82bd 4c4b c0bd eddb 893d
00000180: 2288 53bd 2a02 573d 062a b83d 3ca9 98bd
00000190: 06cc a8bd 0893 76bd 6013 c4bd 4fde 76bd
000001a0: 5043 d93d 3c5b b93c f87a 7d3d 1d9b c33d
000001b0: 4be3 c43d d472 8fbd 5abc 103d 379e dfbc
000001c0: 67b7 0abd a60b e73c 0ef0 19bd 6ad9 823c
000001d0: 180a 3ebb b432 86bd 494b 403d dff6 753d
000001e0: ed9c 30bd dd7a bb3c 1dd2 9e3b 9611 5fbd
000001f0: 0843 63bc cfe9 d5bd 6cba 8f3c 5c88 b13d
00000200: 10a6 803d 108e b7bd 4faa a3bd 6d11 a3bc
00000210: 574b aebd 045a d93c 8c2d 8c3d e9bd c3bb
00000220: eaa9 893d e691 543c 0ab2 dc3d 09ac e2bb
00000230: 02e9 77bd f1ce 88bd c7d7 c93d 6e89 983b
00000240: 7a00 6fbd ecd6 393c 08d5 d63c 7f2d afbd
00000250: 916a c63d 9a19 9b3d acc9 cf3b f60d be3c
00000260: 4338 e2bc f592 8a3d 4d23 52bc af4e 9a3d
00000270: c7c9 d03d e69a 343d 1576 a1bd b8eb 423c
00000280: cf9b e03d 63b6 67bd d538 b63c 4c95 a1bc
00000290: 919b 8dbc fd85 c7bd 9bac d63d 5bc7 9e3d
000002a0: f26b 36bd 68a9 2c3c 7761 273d 5846 993c
000002b0: 818e c6bd 5d0a a7bd 4e12 50bd 6581 bebd
000002c0: 53ff 8c3d 89ee 89bc 78d2 27bd 9ca7 b1bd
000002d0: 93f5 cf3d d096 3d3c d287 3ebd c088 293b
000002e0: 4d83 ce3d 9815 abbc 143b cabb 4d12 ddbd
000002f0: 39b9 ad3c 2364 de3d e50b 9ebd 0826 b2bd
00000300: 95d0 9abd a191 ca3d da42 573d 6208 9cbd
00000310: 3415 8bbd 5644 72bd 693a cbbc 03f3 bebd
00000320: 17bd 8abb 709e a83d a967 a2bd a376 2a3d
00000330: 059a d8bc 9820 033d bc6c ceb7 e05a 65bd
00000340: 3054 f93b 0cec debc 37c1 093d 5cf4 c43c
00000350: e692 46bd dd71 6c3d ffcd afbd aa18 dbbc
00000360: afa4 c33b 336c bdbb 7628 94bd fede d93d
00000370: 4c4f 87bd f9d7 c0bd a68f 3abd f1b9 b13d
00000380: 4a9b 61bd c061 7bbd 182a 5a3c d0ea d1bd
00000390: 2aba 693c 68de acbd fbc1 c3bb 1ca4 c0bd
000003a0: 7912 ab3d 7542 d73d a0ee 93bd 8d57 1c3d
000003b0: 195a cebd 04ec d3bd 8f47 513d 406c f2ba
000003c0: 244e 113d 9ff3 b4bd f9a5 d6bd b926 88bd
000003d0: 8e29 b0bc 409c d33d 4b5b 4f3c 1903 9fbd
000003e0: c840 05bc f01c f33c 3f5d 1dbd fdc9 a33d
-0.0580549 -0.069778554 0.03582915 0.03560414 -0.04548587 0.0953858 -0.03224893 -0.06331327
0.035536997 0.02294934 0.07547996 -0.034398057 0.09974674 0.10161982 -0.065025575 0.042996965
0.05826556 0.02178333 -0.07539029 -0.036752947 0.012441496 -0.0992593 0.10090907 -0.0860979
0.031227212 -0.09021108 0.07776634 -0.049127977 0.10084635 -0.11426912 0.028385453 0.088085756
0.022334179 -0.024879923 0.0037469184 0.00012957265 0.035257645 0.07562388 -0.028062608 -0.024978176
0.06674836 -0.084179685 -0.027259862 -0.083503194 -0.10401026 0.10504258 -0.06582601 0.09759678
0.024311086 0.09853436 0.033601064 -0.10783586 -0.05290249 0.08602697 -0.013583828 0.10175202
-0.0845844 0.030529978 0.07999659 -0.02156615 -0.0039383285 -0.11543305 -0.01606961 -0.09837302
-0.08928541 -0.022138244 -0.016020678 0.029862005 0.05319813 -0.04440334 -0.056473363 -0.00669425
0.072245836 -0.094244465 0.017631274 -0.0006401539 -0.06942937 0.07186599 -0.057483654 -0.1121896
0.02511583 0.0030151326 -0.105341956 -0.039099246 0.07159799 0.083398424 0.0628527 -0.03590005
0.058389775 0.067024805 -0.07719584 -0.10528378 -0.043510344 -0.06392889 -0.09389362 0.06731401
-0.0516435 0.0524923 0.0899239 -0.07454154 -0.082420394 -0.060198814 -0.09574008 -0.060270604
0.10608542 0.022626512 0.06188485 0.0955107 0.09613665 -0.070043236 0.035335876 -0.027297122
-0.033866312 0.028203797 -0.03758245 0.015972812 -0.0028997716 -0.065526396 0.046946798 0.060049888
-0.043118406 0.022885734 0.004846825 -0.05446013 -0.013870962 -0.10444986 0.017544948 0.086685866
0.06281674 -0.08962643 -0.07991468 -0.01990577 -0.08510464 0.02653218 0.06844625 -0.005973567
0.06721862 0.012974238 0.10776146 -0.006917481 -0.060524948 -0.06680096 0.098556094 0.004655055
-0.058350064 0.011342745 0.026224628 -0.085535996 0.09688295 0.075732425 0.00634118 0.023200016
-0.027614718 0.06766311 -0.012825799 0.07534539 0.10194736 0.044093035 -0.078838505 0.01189702
0.10967218 -0.056570422 0.022243896 -0.01972451 -0.017286094 -0.09742353 0.10482141 0.07752868
-0.04453654 0.0105384365 0.040864434 0.0187103 -0.09695149 -0.081562735 -0.050798707 -0.09302024
0.06884637 -0.016837375 -0.040972203 -0.08674547 0.101542614 0.011571601 -0.046516247 0.0025868863
0.100836374 -0.02088432 -0.0061715934 -0.10794506 0.021206485 0.10858943 -0.077171125 -0.0869866
-0.07559315 0.09891058 0.05255399 -0.076187864 -0.067911536 -0.0591472 -0.024808126 -0.093236946
-0.004233967 0.082333446 -0.07929928 0.041617047 -0.02644063 0.032013506 -2.4607747e-05 -0.05599487
0.007608913 -0.027212165 0.03363153 0.0240423 -0.048479937 0.057725776 -0.085842125 -0.02674516
0.0059705595 -0.0057807206 -0.0723428 0.106382355 -0.066069216 -0.094161935 -0.04554715 0.08678044
-0.055079736 -0.06137252 0.0133157 -0.10249865 0.014265576 -0.08440858 -0.005974052 -0.094063014
0.08353133 0.105107225 -0.072232485 0.038169432 -0.100757785 -0.10347751 0.051093634 -0.0018495396
0.03547491 -0.088355295 -0.104808755 -0.06648011 -0.02150419 0.10332537 0.012656043 -0.07764263
-0.008133121 0.029676884 -0.038419005 0.079975106

fc3.bias f4 [3]
00000000: 040f 003d 8f60 6ebd 52d7 a53d
0.03126432 -0.058197554 0.0809771
